…
weight_decay: 0.0005
stepsize: 60000
snapshot: 0
snapshot_prefix: "zf_rpn"
average_loss: 100
I1025 22:42:43.565819 16778 solver.cpp:81] Creating training net from train_net file: models/pascal_voc/ZF/faster_rcnn_alt_opt/stage1_rpn_train.pt
I1025 22:42:43.575799 16778 net.cpp:49] Initializing net from parameters: 
name: "ZF"
state {
  phase: TRAIN
}
layer {
  name: "input-data"
  type: "Python"
  top: "data"
  top: "im_info"
  top: "gt_boxes"
  python_param {
    module: "roi_data_layer.layer"
    layer: "RoIDataLayer"
    param_str: "\'num_classes\': 2"
  }
}
layer {
  name: "conv1"
  type: "Convolution"
  bottom: "data"
  top: "conv1"
  param {
    lr_mult: 1
  }
  param {
    lr_mult: 2
  }
  convolution_param {
    num_output: 96
    pad: 3
    kernel_size: 7
    stride: 2
  }
}
layer {
  name: "relu1"
  type: "ReLU"
  bottom: "conv1"
  top: "conv1"
}
layer {
  name: "norm1"
  type: "LRN"
  bottom: "conv1"
  top: "norm1"
  lrn_param {
    local_size: 3
    alpha: 5e-05
    beta: 0.75
    norm_region: WITHIN_CHANNEL
    engine: CAFFE
  }
}
layer {
  name: "pool1"
  type: "Pooling"
  bottom: "norm1"
  top: "pool1"
  pooling_param {
    pool: MAX
    kernel_size: 3
    stride: 2
    pad: 1
  }
}
layer {
  name: "conv2"
  type: "Convolution"
  bottom: "pool1"
  top: "conv2"
  param {
    lr_mult: 1
  }
  param {
    lr_mult: 2
  }
  convolution_param {
    num_output: 256
    pad: 2
    kernel_size: 5
    stride: 2
  }
}
layer {
  name: "relu2"
  type: "ReLU"
  bottom: "conv2"
  top: "conv2"
}
layer {
  name: "norm2"
  type: "LRN"
  bottom: "conv2"
  top: "norm2"
  lrn_param {
    local_size: 3
    alpha: 5e-05
    beta: 0.75
    norm_region: WITHIN_CHANNEL
    engine: CAFFE
  }
}
layer {
  name: "pool2"
  type: "Pooling"
  bottom: "norm2"
  top: "pool2"
  pooling_param {
    pool: MAX
    kernel_size: 3
    stride: 2
    pad: 1
  }
}
layer {
  name: "conv3"
  type: "Convolution"
  bottom: "pool2"
  top: "conv3"
  param {
    lr_mult: 1
  }
  param {
    lr_mult: 2
  }
  convolution_param {
    num_output: 384
    pad: 1
    kernel_size: 3
    stride: 1
  }
}
layer {
  name: "relu3"
  type: "ReLU"
  bottom: "conv3"
  top: "conv3"
}
layer {
  name: "conv4"
  type: "Convolution"
  bottom: "conv3"
  top: "conv4"
  param {
    lr_mult: 1
  }
  param {
    lr_mult: 2
  }
  convolution_param {
    num_output: 384
    pad: 1
    kernel_size: 3
    stride: 1
  }
}
layer {
  name: "relu4"
  type: "ReLU"
  bottom: "conv4"
  top: "conv4"
}
layer {
  name: "conv5"
  type: "Convolution"
  bottom: "conv4"
  top: "conv5"
  param {
    lr_mult: 1
  }
  param {
    lr_mult: 2
  }
  convolution_param {
    num_output: 256
    pad: 1
    kernel_size: 3
    stride: 1
  }
}
layer {
  name: "relu5"
  type: "ReLU"
  bottom: "conv5"
  top: "conv5"
}
layer {
  name: "rpn_conv1"
  type: "Convolution"
  bottom: "conv5"
  top: "rpn_conv1"
  param {
    lr_mult: 1
  }
  param {
    lr_mult: 2
  }
  convolution_param {
    num_output: 256
    pad: 1
    kernel_size: 3
    stride: 1
    weight_filler {
      type: "gaussian"
      std: 0.01
    }
    bias_filler {
      type: "constant"
      value: 0
    }
  }
}
layer {
  name: "rpn_relu1"
  type: "ReLU"
  bottom: "rpn_conv1"
  top: "rpn_conv1"
}
layer {
  name: "rpn_cls_score"
  type: "Convolution"
  bottom: "rpn_conv1"
  top: "rpn_cls_score"
  param {
    lr_mult: 1
  }
  param {
    lr_mult: 2
  }
  convolution_param {
    num_output: 18
    pad: 0
    kernel_size: 1
    stride: 1
    weight_filler {
      type: "gaussian"
      std: 0.01
    }
    bias_filler {
      type: "constant"
      value: 0
    }
  }
}
layer {
  name: "rpn_bbox_pred"
  type: "Convolution"
  bottom: "rpn_conv1"
  top: "rpn_bbox_pred"
  param {
    lr_mult: 1
  }
  param {
    lr_mult: 2
  }
  convolution_param {
    num_output: 36
    pad: 0
    kernel_size: 1
    stride: 1
    weight_filler {
      type: "gaussian"
      std: 0.01
    }
    bias_filler {
      type: "constant"
      value: 0
    }
  }
}
layer {
  name: "rpn_cls_score_reshape"
  type: "Reshape"
  bottom: "rpn_cls_score"
  top: "rpn_cls_score_reshape"
  reshape_param {
    shape {
      dim: 0
      dim: 2
      dim: -1
      dim: 0
    }
  }
}
layer {
  name: "rpn-data"
  type: "Python"
  bottom: "rpn_cls_score"
  bottom: "gt_boxes"
  bottom: "im_info"
  bottom: "data"
  top: "rpn_labels"
  top: "rpn_bbox_targets"
  top: "rpn_bbox_inside_weights"
  top: "rpn_bbox_outside_weights"
  python_param {
    module: "rpn.anchor_target_layer"
    layer: "AnchorTargetLayer"
    param_str: "\'feat_stride\': 16"
  }
}
layer {
  name: "rpn_loss_cls"
  type: "SoftmaxWithLoss"
  bottom: "rpn_cls_score_reshape"
  bottom: "rpn_labels"
  top: "rpn_cls_loss"
  loss_weight: 1
  propagate_down: true
  propagate_down: false
  loss_param {
    ignore_label: -1
    normalize: true
  }
}
layer {
  name: "rpn_loss_bbox"
  type: "SmoothL1Loss"
  bottom: "rpn_bbox_pred"
  bottom: "rpn_bbox_targets"
  bottom: "rpn_bbox_inside_weights"
  bottom: "rpn_bbox_outside_weights"
  top: "rpn_loss_bbox"
  loss_weight: 1
  smooth_l1_loss_param {
    sigma: 3
  }
}
layer {
  name: "dummy_roi_pool_conv5"
  type: "DummyData"
  top: "dummy_roi_pool_conv5"
  dummy_data_param {
    data_filler {
      type: "gaussian"
      std: 0.01
    }
    shape {
      dim: 1
      dim: 9216
    }
  }
}
layer {
  name: "fc6"
  type: "InnerProduct"
  bottom: "dummy_roi_pool_conv5"
  top: "fc6"
  param {
    lr_mult: 0
    decay_mult: 0
  }
  param {
    lr_mult: 0
    decay_mult: 0
  }
  inner_product_param {
    num_output: 4096
  }
}
layer {
  name: "relu6"
  type: "ReLU"
  bottom: "fc6"
  top: "fc6"
}
layer {
  name: "fc7"
  type: "InnerProduct"
  bottom: "fc6"
  top: "fc7"
  param {
    lr_mult: 0
    decay_mult: 0
  }
  param {
    lr_mult: 0
    decay_mult: 0
  }
  inner_product_param {
    num_output: 4096
  }
}
layer {
  name: "silence_fc7"
  type: "Silence"
  bottom: "fc7"
}
I1025 22:42:43.575933 16778 layer_factory.hpp:77] Creating layer input-data
I1025 22:42:43.584403 16778 net.cpp:106] Creating Layer input-data
I1025 22:42:43.584424 16778 net.cpp:411] input-data -> data
I1025 22:42:43.584431 16778 net.cpp:411] input-data -> im_info
I1025 22:42:43.584436 16778 net.cpp:411] input-data -> gt_boxes
I1025 22:42:43.590970 16778 net.cpp:150] Setting up input-data
I1025 22:42:43.590991 16778 net.cpp:157] Top shape: 1 3 600 1000 (1800000)
I1025 22:42:43.590994 16778 net.cpp:157] Top shape: 1 3 (3)
I1025 22:42:43.590997 16778 net.cpp:157] Top shape: 1 4 (4)
I1025 22:42:43.590998 16778 net.cpp:165] Memory required for data: 7200028
I1025 22:42:43.591002 16778 layer_factory.hpp:77] Creating layer data_input-data_0_split
I1025 22:42:43.591020 16778 net.cpp:106] Creating Layer data_input-data_0_split
I1025 22:42:43.591023 16778 net.cpp:454] data_input-data_0_split <- data
I1025 22:42:43.591039 16778 net.cpp:411] data_input-data_0_split -> data_input-data_0_split_0
I1025 22:42:43.591049 16778 net.cpp:411] data_input-data_0_split -> data_input-data_0_split_1
I1025 22:42:43.591094 16778 net.cpp:150] Setting up data_input-data_0_split
I1025 22:42:43.591102 16778 net.cpp:157] Top shape: 1 3 600 1000 (1800000)
I1025 22:42:43.591116 16778 net.cpp:157] Top shape: 1 3 600 1000 (1800000)
I1025 22:42:43.591120 16778 net.cpp:165] Memory required for data: 21600028
I1025 22:42:43.591125 16778 layer_factory.hpp:77] Creating layer conv1
I1025 22:42:43.591140 16778 net.cpp:106] Creating Layer conv1
I1025 22:42:43.591145 16778 net.cpp:454] conv1 <- data_input-data_0_split_0
I1025 22:42:43.591161 16778 net.cpp:411] conv1 -> conv1
I1025 22:42:43.696056 16778 net.cpp:150] Setting up conv1
I1025 22:42:43.696094 16778 net.cpp:157] Top shape: 1 96 300 500 (14400000)
I1025 22:42:43.696096 16778 net.cpp:165] Memory required for data: 79200028
I1025 22:42:43.696107 16778 layer_factory.hpp:77] Creating layer relu1
I1025 22:42:43.696116 16778 net.cpp:106] Creating Layer relu1
I1025 22:42:43.696120 16778 net.cpp:454] relu1 <- conv1
I1025 22:42:43.696128 16778 net.cpp:397] relu1 -> conv1 (in-place)
I1025 22:42:43.696396 16778 net.cpp:150] Setting up relu1
I1025 22:42:43.696406 16778 net.cpp:157] Top shape: 1 96 300 500 (14400000)
I1025 22:42:43.696409 16778 net.cpp:165] Memory required for data: 136800028
I1025 22:42:43.696413 16778 layer_factory.hpp:77] Creating layer norm1
I1025 22:42:43.696435 16778 net.cpp:106] Creating Layer norm1
I1025 22:42:43.696455 16778 net.cpp:454] norm1 <- conv1
I1025 22:42:43.696460 16778 net.cpp:411] norm1 -> norm1
I1025 22:42:43.696619 16778 net.cpp:150] Setting up norm1
I1025 22:42:43.696626 16778 net.cpp:157] Top shape: 1 96 300 500 (14400000)
I1025 22:42:43.696640 16778 net.cpp:165] Memory required for data: 194400028
I1025 22:42:43.696645 16778 layer_factory.hpp:77] Creating layer pool1
I1025 22:42:43.696650 16778 net.cpp:106] Creating Layer pool1
I1025 22:42:43.696653 16778 net.cpp:454] pool1 <- norm1
I1025 22:42:43.696660 16778 net.cpp:411] pool1 -> pool1
I1025 22:42:43.696697 16778 net.cpp:150] Setting up pool1
I1025 22:42:43.696704 16778 net.cpp:157] Top shape: 1 96 151 251 (3638496)
I1025 22:42:43.696717 16778 net.cpp:165] Memory required for data: 208954012
I1025 22:42:43.696719 16778 layer_factory.hpp:77] Creating layer conv2
I1025 22:42:43.696738 16778 net.cpp:106] Creating Layer conv2
I1025 22:42:43.696743 16778 net.cpp:454] conv2 <- pool1
I1025 22:42:43.696748 16778 net.cpp:411] conv2 -> conv2
I1025 22:42:43.698331 16778 net.cpp:150] Setting up conv2
I1025 22:42:43.698341 16778 net.cpp:157] Top shape: 1 256 76 126 (2451456)
I1025 22:42:43.698354 16778 net.cpp:165] Memory required for data: 218759836
I1025 22:42:43.698359 16778 layer_factory.hpp:77] Creating layer relu2
I1025 22:42:43.698364 16778 net.cpp:106] Creating Layer relu2
I1025 22:42:43.698366 16778 net.cpp:454] relu2 <- conv2
I1025 22:42:43.698372 16778 net.cpp:397] relu2 -> conv2 (in-place)
I1025 22:42:43.698665 16778 net.cpp:150] Setting up relu2
I1025 22:42:43.698675 16778 net.cpp:157] Top shape: 1 256 76 126 (2451456)
I1025 22:42:43.698693 16778 net.cpp:165] Memory required for data: 228565660
I1025 22:42:43.698696 16778 layer_factory.hpp:77] Creating layer norm2
I1025 22:42:43.698704 16778 net.cpp:106] Creating Layer norm2
I1025 22:42:43.698706 16778 net.cpp:454] norm2 <- conv2
I1025 22:42:43.698714 16778 net.cpp:411] norm2 -> norm2
I1025 22:42:43.698807 16778 net.cpp:150] Setting up norm2
I1025 22:42:43.698815 16778 net.cpp:157] Top shape: 1 256 76 126 (2451456)
I1025 22:42:43.698833 16778 net.cpp:165] Memory required for data: 238371484
I1025 22:42:43.698837 16778 layer_factory.hpp:77] Creating layer pool2
I1025 22:42:43.698843 16778 net.cpp:106] Creating Layer pool2
I1025 22:42:43.698848 16778 net.cpp:454] pool2 <- norm2
I1025 22:42:43.698853 16778 net.cpp:411] pool2 -> pool2
I1025 22:42:43.698925 16778 net.cpp:150] Setting up pool2
I1025 22:42:43.698931 16778 net.cpp:157] Top shape: 1 256 39 64 (638976)
I1025 22:42:43.698945 16778 net.cpp:165] Memory required for data: 240927388
I1025 22:42:43.698947 16778 layer_factory.hpp:77] Creating layer conv3
I1025 22:42:43.698956 16778 net.cpp:106] Creating Layer conv3
I1025 22:42:43.698969 16778 net.cpp:454] conv3 <- pool2
I1025 22:42:43.698974 16778 net.cpp:411] conv3 -> conv3
I1025 22:42:43.701529 16778 net.cpp:150] Setting up conv3
I1025 22:42:43.701558 16778 net.cpp:157] Top shape: 1 384 39 64 (958464)
I1025 22:42:43.701560 16778 net.cpp:165] Memory required for data: 244761244
I1025 22:42:43.701570 16778 layer_factory.hpp:77] Creating layer relu3
I1025 22:42:43.701577 16778 net.cpp:106] Creating Layer relu3
I1025 22:42:43.701581 16778 net.cpp:454] relu3 <- conv3
I1025 22:42:43.701589 16778 net.cpp:397] relu3 -> conv3 (in-place)
I1025 22:42:43.701771 16778 net.cpp:150] Setting up relu3
I1025 22:42:43.701781 16778 net.cpp:157] Top shape: 1 384 39 64 (958464)
I1025 22:42:43.701783 16778 net.cpp:165] Memory required for data: 248595100
I1025 22:42:43.701786 16778 layer_factory.hpp:77] Creating layer conv4
I1025 22:42:43.701795 16778 net.cpp:106] Creating Layer conv4
I1025 22:42:43.701809 16778 net.cpp:454] conv4 <- conv3
I1025 22:42:43.701830 16778 net.cpp:411] conv4 -> conv4
I1025 22:42:43.704222 16778 net.cpp:150] Setting up conv4
I1025 22:42:43.704237 16778 net.cpp:157] Top shape: 1 384 39 64 (958464)
I1025 22:42:43.704239 16778 net.cpp:165] Memory required for data: 252428956
I1025 22:42:43.704246 16778 layer_factory.hpp:77] Creating layer relu4
I1025 22:42:43.704251 16778 net.cpp:106] Creating Layer relu4
I1025 22:42:43.704263 16778 net.cpp:454] relu4 <- conv4
I1025 22:42:43.704267 16778 net.cpp:397] relu4 -> conv4 (in-place)
I1025 22:42:43.704543 16778 net.cpp:150] Setting up relu4
I1025 22:42:43.704553 16778 net.cpp:157] Top shape: 1 384 39 64 (958464)
I1025 22:42:43.704556 16778 net.cpp:165] Memory required for data: 256262812
I1025 22:42:43.704560 16778 layer_factory.hpp:77] Creating layer conv5
I1025 22:42:43.704583 16778 net.cpp:106] Creating Layer conv5
I1025 22:42:43.704602 16778 net.cpp:454] conv5 <- conv4
I1025 22:42:43.704608 16778 net.cpp:411] conv5 -> conv5
I1025 22:42:43.706457 16778 net.cpp:150] Setting up conv5
I1025 22:42:43.706467 16778 net.cpp:157] Top shape: 1 256 39 64 (638976)
I1025 22:42:43.706470 16778 net.cpp:165] Memory required for data: 258818716
I1025 22:42:43.706478 16778 layer_factory.hpp:77] Creating layer relu5
I1025 22:42:43.706485 16778 net.cpp:106] Creating Layer relu5
I1025 22:42:43.706487 16778 net.cpp:454] relu5 <- conv5
I1025 22:42:43.706496 16778 net.cpp:397] relu5 -> conv5 (in-place)
I1025 22:42:43.706799 16778 net.cpp:150] Setting up relu5
I1025 22:42:43.706809 16778 net.cpp:157] Top shape: 1 256 39 64 (638976)
I1025 22:42:43.706820 16778 net.cpp:165] Memory required for data: 261374620
I1025 22:42:43.706823 16778 layer_factory.hpp:77] Creating layer rpn_conv1
I1025 22:42:43.706845 16778 net.cpp:106] Creating Layer rpn_conv1
I1025 22:42:43.706850 16778 net.cpp:454] rpn_conv1 <- conv5
I1025 22:42:43.706866 16778 net.cpp:411] rpn_conv1 -> rpn_conv1
I1025 22:42:43.712456 16778 net.cpp:150] Setting up rpn_conv1
I1025 22:42:43.712466 16778 net.cpp:157] Top shape: 1 256 39 64 (638976)
I1025 22:42:43.712468 16778 net.cpp:165] Memory required for data: 263930524
I1025 22:42:43.712482 16778 layer_factory.hpp:77] Creating layer rpn_relu1
I1025 22:42:43.712488 16778 net.cpp:106] Creating Layer rpn_relu1
I1025 22:42:43.712505 16778 net.cpp:454] rpn_relu1 <- rpn_conv1
I1025 22:42:43.712512 16778 net.cpp:397] rpn_relu1 -> rpn_conv1 (in-place)
I1025 22:42:43.712720 16778 net.cpp:150] Setting up rpn_relu1
I1025 22:42:43.712729 16778 net.cpp:157] Top shape: 1 256 39 64 (638976)
I1025 22:42:43.712743 16778 net.cpp:165] Memory required for data: 266486428
I1025 22:42:43.712746 16778 layer_factory.hpp:77] Creating layer rpn_conv1_rpn_relu1_0_split
I1025 22:42:43.712767 16778 net.cpp:106] Creating Layer rpn_conv1_rpn_relu1_0_split
I1025 22:42:43.712771 16778 net.cpp:454] rpn_conv1_rpn_relu1_0_split <- rpn_conv1
I1025 22:42:43.712788 16778 net.cpp:411] rpn_conv1_rpn_relu1_0_split -> rpn_conv1_rpn_relu1_0_split_0
I1025 22:42:43.712807 16778 net.cpp:411] rpn_conv1_rpn_relu1_0_split -> rpn_conv1_rpn_relu1_0_split_1
I1025 22:42:43.712867 16778 net.cpp:150] Setting up rpn_conv1_rpn_relu1_0_split
I1025 22:42:43.712874 16778 net.cpp:157] Top shape: 1 256 39 64 (638976)
I1025 22:42:43.712889 16778 net.cpp:157] Top shape: 1 256 39 64 (638976)
I1025 22:42:43.712893 16778 net.cpp:165] Memory required for data: 271598236
I1025 22:42:43.712905 16778 layer_factory.hpp:77] Creating layer rpn_cls_score
I1025 22:42:43.712916 16778 net.cpp:106] Creating Layer rpn_cls_score
I1025 22:42:43.712930 16778 net.cpp:454] rpn_cls_score <- rpn_conv1_rpn_relu1_0_split_0
I1025 22:42:43.712939 16778 net.cpp:411] rpn_cls_score -> rpn_cls_score
I1025 22:42:43.713958 16778 net.cpp:150] Setting up rpn_cls_score
I1025 22:42:43.713968 16778 net.cpp:157] Top shape: 1 18 39 64 (44928)
I1025 22:42:43.713969 16778 net.cpp:165] Memory required for data: 271777948
I1025 22:42:43.713984 16778 layer_factory.hpp:77] Creating layer rpn_cls_score_rpn_cls_score_0_split
I1025 22:42:43.714001 16778 net.cpp:106] Creating Layer rpn_cls_score_rpn_cls_score_0_split
I1025 22:42:43.714006 16778 net.cpp:454] rpn_cls_score_rpn_cls_score_0_split <- rpn_cls_score
I1025 22:42:43.714025 16778 net.cpp:411] rpn_cls_score_rpn_cls_score_0_split -> rpn_cls_score_rpn_cls_score_0_split_0
I1025 22:42:43.714041 16778 net.cpp:411] rpn_cls_score_rpn_cls_score_0_split -> rpn_cls_score_rpn_cls_score_0_split_1
I1025 22:42:43.714090 16778 net.cpp:150] Setting up rpn_cls_score_rpn_cls_score_0_split
I1025 22:42:43.714097 16778 net.cpp:157] Top shape: 1 18 39 64 (44928)
I1025 22:42:43.714102 16778 net.cpp:157] Top shape: 1 18 39 64 (44928)
I1025 22:42:43.714105 16778 net.cpp:165] Memory required for data: 272137372
I1025 22:42:43.714108 16778 layer_factory.hpp:77] Creating layer rpn_bbox_pred
I1025 22:42:43.714119 16778 net.cpp:106] Creating Layer rpn_bbox_pred
I1025 22:42:43.714123 16778 net.cpp:454] rpn_bbox_pred <- rpn_conv1_rpn_relu1_0_split_1
I1025 22:42:43.714131 16778 net.cpp:411] rpn_bbox_pred -> rpn_bbox_pred
I1025 22:42:43.715101 16778 net.cpp:150] Setting up rpn_bbox_pred
I1025 22:42:43.715111 16778 net.cpp:157] Top shape: 1 36 39 64 (89856)
I1025 22:42:43.715113 16778 net.cpp:165] Memory required for data: 272496796
I1025 22:42:43.715119 16778 layer_factory.hpp:77] Creating layer rpn_cls_score_reshape
I1025 22:42:43.715132 16778 net.cpp:106] Creating Layer rpn_cls_score_reshape
I1025 22:42:43.715137 16778 net.cpp:454] rpn_cls_score_reshape <- rpn_cls_score_rpn_cls_score_0_split_0
I1025 22:42:43.715145 16778 net.cpp:411] rpn_cls_score_reshape -> rpn_cls_score_reshape
I1025 22:42:43.715175 16778 net.cpp:150] Setting up rpn_cls_score_reshape
I1025 22:42:43.715183 16778 net.cpp:157] Top shape: 1 2 351 64 (44928)
I1025 22:42:43.715185 16778 net.cpp:165] Memory required for data: 272676508
I1025 22:42:43.715189 16778 layer_factory.hpp:77] Creating layer rpn-data
I1025 22:42:43.715817 16778 net.cpp:106] Creating Layer rpn-data
I1025 22:42:43.715826 16778 net.cpp:454] rpn-data <- rpn_cls_score_rpn_cls_score_0_split_1
I1025 22:42:43.715829 16778 net.cpp:454] rpn-data <- gt_boxes
I1025 22:42:43.715842 16778 net.cpp:454] rpn-data <- im_info
I1025 22:42:43.715845 16778 net.cpp:454] rpn-data <- data_input-data_0_split_1
I1025 22:42:43.715852 16778 net.cpp:411] rpn-data -> rpn_labels
I1025 22:42:43.715860 16778 net.cpp:411] rpn-data -> rpn_bbox_targets
I1025 22:42:43.715869 16778 net.cpp:411] rpn-data -> rpn_bbox_inside_weights
I1025 22:42:43.715878 16778 net.cpp:411] rpn-data -> rpn_bbox_outside_weights
I1025 22:42:43.716907 16778 net.cpp:150] Setting up rpn-data
I1025 22:42:43.716917 16778 net.cpp:157] Top shape: 1 1 351 64 (22464)
I1025 22:42:43.716920 16778 net.cpp:157] Top shape: 1 36 39 64 (89856)
I1025 22:42:43.716924 16778 net.cpp:157] Top shape: 1 36 39 64 (89856)
I1025 22:42:43.716929 16778 net.cpp:157] Top shape: 1 36 39 64 (89856)
I1025 22:42:43.716933 16778 net.cpp:165] Memory required for data: 273844636
I1025 22:42:43.716936 16778 layer_factory.hpp:77] Creating layer rpn_loss_cls
I1025 22:42:43.716944 16778 net.cpp:106] Creating Layer rpn_loss_cls
I1025 22:42:43.716948 16778 net.cpp:454] rpn_loss_cls <- rpn_cls_score_reshape
I1025 22:42:43.716954 16778 net.cpp:454] rpn_loss_cls <- rpn_labels
I1025 22:42:43.716960 16778 net.cpp:411] rpn_loss_cls -> rpn_cls_loss
…
Wrote snapshot to: /home/cgangee/code/cg-py-faster-rcnn/output/faster_rcnn_alt_opt/tattoo_train/zf_rpn_stage1_iter_40000.caffemodel
done solving
~~~~~~~~~~~~~~~~~~~~~~~~~~~~~~~~~~~~~~~~~~~~~~~~~~~~~~~~~~
Stage 1 RPN, generate proposals
~~~~~~~~~~~~~~~~~~~~~~~~~~~~~~~~~~~~~~~~~~~~~~~~~~~~~~~~~~
WARNING: Logging before InitGoogleLogging() is written to STDERR
I1025 23:42:56.218535 16968 net.cpp:49] Initializing net from parameters: 
name: "ZF"
input: "data"
input: "im_info"
state {
  phase: TEST
}
input_shape {
  dim: 1
  dim: 3
  dim: 224
  dim: 224
}
input_shape {
  dim: 1
  dim: 3
}
layer {
  name: "conv1"
  type: "Convolution"
  bottom: "data"
  top: "conv1"
  convolution_param {
    num_output: 96
    pad: 3
    kernel_size: 7
    stride: 2
  }
}
layer {
  name: "relu1"
  type: "ReLU"
  bottom: "conv1"
  top: "conv1"
}
layer {
  name: "norm1"
  type: "LRN"
  bottom: "conv1"
  top: "norm1"
  lrn_param {
    local_size: 3
    alpha: 5e-05
    beta: 0.75
    norm_region: WITHIN_CHANNEL
    engine: CAFFE
  }
}
layer {
  name: "pool1"
  type: "Pooling"
  bottom: "norm1"
  top: "pool1"
  pooling_param {
    pool: MAX
    kernel_size: 3
    stride: 2
    pad: 1
  }
}
layer {
  name: "conv2"
  type: "Convolution"
  bottom: "pool1"
  top: "conv2"
  convolution_param {
    num_output: 256
    pad: 2
    kernel_size: 5
    stride: 2
  }
}
layer {
  name: "relu2"
  type: "ReLU"
  bottom: "conv2"
  top: "conv2"
}
layer {
  name: "norm2"
  type: "LRN"
  bottom: "conv2"
  top: "norm2"
  lrn_param {
    local_size: 3
    alpha: 5e-05
    beta: 0.75
    norm_region: WITHIN_CHANNEL
    engine: CAFFE
  }
}
layer {
  name: "pool2"
  type: "Pooling"
  bottom: "norm2"
  top: "pool2"
  pooling_param {
    pool: MAX
    kernel_size: 3
    stride: 2
    pad: 1
  }
}
layer {
  name: "conv3"
  type: "Convolution"
  bottom: "pool2"
  top: "conv3"
  convolution_param {
    num_output: 384
    pad: 1
    kernel_size: 3
    stride: 1
  }
}
layer {
  name: "relu3"
  type: "ReLU"
  bottom: "conv3"
  top: "conv3"
}
layer {
  name: "conv4"
  type: "Convolution"
  bottom: "conv3"
  top: "conv4"
  convolution_param {
    num_output: 384
    pad: 1
    kernel_size: 3
    stride: 1
  }
}
layer {
  name: "relu4"
  type: "ReLU"
  bottom: "conv4"
  top: "conv4"
}
layer {
  name: "conv5"
  type: "Convolution"
  bottom: "conv4"
  top: "conv5"
  convolution_param {
    num_output: 256
    pad: 1
    kernel_size: 3
    stride: 1
  }
}
layer {
  name: "relu5"
  type: "ReLU"
  bottom: "conv5"
  top: "conv5"
}
layer {
  name: "rpn_conv1"
  type: "Convolution"
  bottom: "conv5"
  top: "rpn_conv1"
  convolution_param {
    num_output: 256
    pad: 1
    kernel_size: 3
    stride: 1
  }
}
layer {
  name: "rpn_relu1"
  type: "ReLU"
  bottom: "rpn_conv1"
  top: "rpn_conv1"
}
layer {
  name: "rpn_cls_score"
  type: "Convolution"
  bottom: "rpn_conv1"
  top: "rpn_cls_score"
  convolution_param {
    num_output: 18
    pad: 0
    kernel_size: 1
    stride: 1
  }
}
layer {
  name: "rpn_bbox_pred"
  type: "Convolution"
  bottom: "rpn_conv1"
  top: "rpn_bbox_pred"
  convolution_param {
    num_output: 36
    pad: 0
    kernel_size: 1
    stride: 1
  }
}
layer {
  name: "rpn_cls_score_reshape"
  type: "Reshape"
  bottom: "rpn_cls_score"
  top: "rpn_cls_score_reshape"
  reshape_param {
    shape {
      dim: 0
      dim: 2
      dim: -1
      dim: 0
    }
  }
}
layer {
  name: "rpn_cls_prob"
  type: "Softmax"
  bottom: "rpn_cls_score_reshape"
  top: "rpn_cls_prob"
}
layer {
  name: "rpn_cls_prob_reshape"
  type: "Reshape"
  bottom: "rpn_cls_prob"
  top: "rpn_cls_prob_reshape"
  reshape_param {
    shape {
      dim: 0
      dim: 18
      dim: -1
      dim: 0
    }
  }
}
layer {
  name: "proposal"
  type: "Python"
  bottom: "rpn_cls_prob_reshape"
  bottom: "rpn_bbox_pred"
  bottom: "im_info"
  top: "rois"
  top: "scores"
  python_param {
    module: "rpn.proposal_layer"
    layer: "ProposalLayer"
    param_str: "\'feat_stride\': 16"
  }
}
I1025 23:42:56.218614 16968 net.cpp:413] Input 0 -> data
I1025 23:42:56.224738 16968 net.cpp:413] Input 1 -> im_info
I1025 23:42:56.224789 16968 layer_factory.hpp:77] Creating layer conv1
I1025 23:42:56.224836 16968 net.cpp:106] Creating Layer conv1
I1025 23:42:56.224839 16968 net.cpp:454] conv1 <- data
I1025 23:42:56.224862 16968 net.cpp:411] conv1 -> conv1
I1025 23:42:56.332710 16968 net.cpp:150] Setting up conv1
I1025 23:42:56.332736 16968 net.cpp:157] Top shape: 1 96 112 112 (1204224)
I1025 23:42:56.332738 16968 net.cpp:165] Memory required for data: 4816896
I1025 23:42:56.332762 16968 layer_factory.hpp:77] Creating layer relu1
I1025 23:42:56.332782 16968 net.cpp:106] Creating Layer relu1
I1025 23:42:56.332784 16968 net.cpp:454] relu1 <- conv1
I1025 23:42:56.332798 16968 net.cpp:397] relu1 -> conv1 (in-place)
I1025 23:42:56.333014 16968 net.cpp:150] Setting up relu1
I1025 23:42:56.333021 16968 net.cpp:157] Top shape: 1 96 112 112 (1204224)
I1025 23:42:56.333024 16968 net.cpp:165] Memory required for data: 9633792
I1025 23:42:56.333035 16968 layer_factory.hpp:77] Creating layer norm1
I1025 23:42:56.333042 16968 net.cpp:106] Creating Layer norm1
I1025 23:42:56.333045 16968 net.cpp:454] norm1 <- conv1
I1025 23:42:56.333048 16968 net.cpp:411] norm1 -> norm1
I1025 23:42:56.333129 16968 net.cpp:150] Setting up norm1
I1025 23:42:56.333134 16968 net.cpp:157] Top shape: 1 96 112 112 (1204224)
I1025 23:42:56.333135 16968 net.cpp:165] Memory required for data: 14450688
I1025 23:42:56.333148 16968 layer_factory.hpp:77] Creating layer pool1
I1025 23:42:56.333151 16968 net.cpp:106] Creating Layer pool1
I1025 23:42:56.333153 16968 net.cpp:454] pool1 <- norm1
I1025 23:42:56.333156 16968 net.cpp:411] pool1 -> pool1
I1025 23:42:56.333176 16968 net.cpp:150] Setting up pool1
I1025 23:42:56.333180 16968 net.cpp:157] Top shape: 1 96 57 57 (311904)
I1025 23:42:56.333183 16968 net.cpp:165] Memory required for data: 15698304
I1025 23:42:56.333184 16968 layer_factory.hpp:77] Creating layer conv2
I1025 23:42:56.333190 16968 net.cpp:106] Creating Layer conv2
I1025 23:42:56.333191 16968 net.cpp:454] conv2 <- pool1
I1025 23:42:56.333194 16968 net.cpp:411] conv2 -> conv2
I1025 23:42:56.334753 16968 net.cpp:150] Setting up conv2
I1025 23:42:56.334761 16968 net.cpp:157] Top shape: 1 256 29 29 (215296)
I1025 23:42:56.334764 16968 net.cpp:165] Memory required for data: 16559488
I1025 23:42:56.334769 16968 layer_factory.hpp:77] Creating layer relu2
I1025 23:42:56.334772 16968 net.cpp:106] Creating Layer relu2
I1025 23:42:56.334774 16968 net.cpp:454] relu2 <- conv2
I1025 23:42:56.334777 16968 net.cpp:397] relu2 -> conv2 (in-place)
I1025 23:42:56.335014 16968 net.cpp:150] Setting up relu2
I1025 23:42:56.335031 16968 net.cpp:157] Top shape: 1 256 29 29 (215296)
I1025 23:42:56.335033 16968 net.cpp:165] Memory required for data: 17420672
I1025 23:42:56.335045 16968 layer_factory.hpp:77] Creating layer norm2
I1025 23:42:56.335049 16968 net.cpp:106] Creating Layer norm2
I1025 23:42:56.335052 16968 net.cpp:454] norm2 <- conv2
I1025 23:42:56.335054 16968 net.cpp:411] norm2 -> norm2
I1025 23:42:56.335151 16968 net.cpp:150] Setting up norm2
I1025 23:42:56.335156 16968 net.cpp:157] Top shape: 1 256 29 29 (215296)
I1025 23:42:56.335157 16968 net.cpp:165] Memory required for data: 18281856
I1025 23:42:56.335170 16968 layer_factory.hpp:77] Creating layer pool2
I1025 23:42:56.335173 16968 net.cpp:106] Creating Layer pool2
I1025 23:42:56.335175 16968 net.cpp:454] pool2 <- norm2
I1025 23:42:56.335187 16968 net.cpp:411] pool2 -> pool2
I1025 23:42:56.335218 16968 net.cpp:150] Setting up pool2
I1025 23:42:56.335222 16968 net.cpp:157] Top shape: 1 256 15 15 (57600)
I1025 23:42:56.335224 16968 net.cpp:165] Memory required for data: 18512256
I1025 23:42:56.335225 16968 layer_factory.hpp:77] Creating layer conv3
I1025 23:42:56.335242 16968 net.cpp:106] Creating Layer conv3
I1025 23:42:56.335244 16968 net.cpp:454] conv3 <- pool2
I1025 23:42:56.335248 16968 net.cpp:411] conv3 -> conv3
I1025 23:42:56.336974 16968 net.cpp:150] Setting up conv3
I1025 23:42:56.336985 16968 net.cpp:157] Top shape: 1 384 15 15 (86400)
I1025 23:42:56.336987 16968 net.cpp:165] Memory required for data: 18857856
I1025 23:42:56.337008 16968 layer_factory.hpp:77] Creating layer relu3
I1025 23:42:56.337014 16968 net.cpp:106] Creating Layer relu3
I1025 23:42:56.337016 16968 net.cpp:454] relu3 <- conv3
I1025 23:42:56.337019 16968 net.cpp:397] relu3 -> conv3 (in-place)
I1025 23:42:56.337157 16968 net.cpp:150] Setting up relu3
I1025 23:42:56.337163 16968 net.cpp:157] Top shape: 1 384 15 15 (86400)
I1025 23:42:56.337165 16968 net.cpp:165] Memory required for data: 19203456
I1025 23:42:56.337167 16968 layer_factory.hpp:77] Creating layer conv4
I1025 23:42:56.337173 16968 net.cpp:106] Creating Layer conv4
I1025 23:42:56.337175 16968 net.cpp:454] conv4 <- conv3
I1025 23:42:56.337178 16968 net.cpp:411] conv4 -> conv4
I1025 23:42:56.339515 16968 net.cpp:150] Setting up conv4
I1025 23:42:56.339532 16968 net.cpp:157] Top shape: 1 384 15 15 (86400)
I1025 23:42:56.339534 16968 net.cpp:165] Memory required for data: 19549056
I1025 23:42:56.339540 16968 layer_factory.hpp:77] Creating layer relu4
I1025 23:42:56.339545 16968 net.cpp:106] Creating Layer relu4
I1025 23:42:56.339547 16968 net.cpp:454] relu4 <- conv4
I1025 23:42:56.339551 16968 net.cpp:397] relu4 -> conv4 (in-place)
I1025 23:42:56.339768 16968 net.cpp:150] Setting up relu4
I1025 23:42:56.339776 16968 net.cpp:157] Top shape: 1 384 15 15 (86400)
I1025 23:42:56.339787 16968 net.cpp:165] Memory required for data: 19894656
I1025 23:42:56.339789 16968 layer_factory.hpp:77] Creating layer conv5
I1025 23:42:56.339809 16968 net.cpp:106] Creating Layer conv5
I1025 23:42:56.339812 16968 net.cpp:454] conv5 <- conv4
I1025 23:42:56.339817 16968 net.cpp:411] conv5 -> conv5
I1025 23:42:56.341502 16968 net.cpp:150] Setting up conv5
I1025 23:42:56.341512 16968 net.cpp:157] Top shape: 1 256 15 15 (57600)
I1025 23:42:56.341514 16968 net.cpp:165] Memory required for data: 20125056
I1025 23:42:56.341521 16968 layer_factory.hpp:77] Creating layer relu5
I1025 23:42:56.341526 16968 net.cpp:106] Creating Layer relu5
I1025 23:42:56.341527 16968 net.cpp:454] relu5 <- conv5
I1025 23:42:56.341532 16968 net.cpp:397] relu5 -> conv5 (in-place)
I1025 23:42:56.341761 16968 net.cpp:150] Setting up relu5
I1025 23:42:56.341769 16968 net.cpp:157] Top shape: 1 256 15 15 (57600)
I1025 23:42:56.341770 16968 net.cpp:165] Memory required for data: 20355456
I1025 23:42:56.341773 16968 layer_factory.hpp:77] Creating layer rpn_conv1
I1025 23:42:56.341789 16968 net.cpp:106] Creating Layer rpn_conv1
I1025 23:42:56.341792 16968 net.cpp:454] rpn_conv1 <- conv5
I1025 23:42:56.341805 16968 net.cpp:411] rpn_conv1 -> rpn_conv1
I1025 23:42:56.343191 16968 net.cpp:150] Setting up rpn_conv1
I1025 23:42:56.343201 16968 net.cpp:157] Top shape: 1 256 15 15 (57600)
I1025 23:42:56.343204 16968 net.cpp:165] Memory required for data: 20585856
I1025 23:42:56.343207 16968 layer_factory.hpp:77] Creating layer rpn_relu1
I1025 23:42:56.343225 16968 net.cpp:106] Creating Layer rpn_relu1
I1025 23:42:56.343227 16968 net.cpp:454] rpn_relu1 <- rpn_conv1
I1025 23:42:56.343230 16968 net.cpp:397] rpn_relu1 -> rpn_conv1 (in-place)
I1025 23:42:56.343369 16968 net.cpp:150] Setting up rpn_relu1
I1025 23:42:56.343374 16968 net.cpp:157] Top shape: 1 256 15 15 (57600)
I1025 23:42:56.343376 16968 net.cpp:165] Memory required for data: 20816256
I1025 23:42:56.343387 16968 layer_factory.hpp:77] Creating layer rpn_conv1_rpn_relu1_0_split
I1025 23:42:56.343395 16968 net.cpp:106] Creating Layer rpn_conv1_rpn_relu1_0_split
I1025 23:42:56.343397 16968 net.cpp:454] rpn_conv1_rpn_relu1_0_split <- rpn_conv1
I1025 23:42:56.343401 16968 net.cpp:411] rpn_conv1_rpn_relu1_0_split -> rpn_conv1_rpn_relu1_0_split_0
I1025 23:42:56.343405 16968 net.cpp:411] rpn_conv1_rpn_relu1_0_split -> rpn_conv1_rpn_relu1_0_split_1
I1025 23:42:56.343449 16968 net.cpp:150] Setting up rpn_conv1_rpn_relu1_0_split
I1025 23:42:56.343456 16968 net.cpp:157] Top shape: 1 256 15 15 (57600)
I1025 23:42:56.343468 16968 net.cpp:157] Top shape: 1 256 15 15 (57600)
I1025 23:42:56.343471 16968 net.cpp:165] Memory required for data: 21277056
I1025 23:42:56.343472 16968 layer_factory.hpp:77] Creating layer rpn_cls_score
I1025 23:42:56.343477 16968 net.cpp:106] Creating Layer rpn_cls_score
I1025 23:42:56.343480 16968 net.cpp:454] rpn_cls_score <- rpn_conv1_rpn_relu1_0_split_0
I1025 23:42:56.343483 16968 net.cpp:411] rpn_cls_score -> rpn_cls_score
I1025 23:42:56.344359 16968 net.cpp:150] Setting up rpn_cls_score
I1025 23:42:56.344368 16968 net.cpp:157] Top shape: 1 18 15 15 (4050)
I1025 23:42:56.344380 16968 net.cpp:165] Memory required for data: 21293256
I1025 23:42:56.344385 16968 layer_factory.hpp:77] Creating layer rpn_bbox_pred
I1025 23:42:56.344401 16968 net.cpp:106] Creating Layer rpn_bbox_pred
I1025 23:42:56.344403 16968 net.cpp:454] rpn_bbox_pred <- rpn_conv1_rpn_relu1_0_split_1
I1025 23:42:56.344408 16968 net.cpp:411] rpn_bbox_pred -> rpn_bbox_pred
I1025 23:42:56.345249 16968 net.cpp:150] Setting up rpn_bbox_pred
I1025 23:42:56.345258 16968 net.cpp:157] Top shape: 1 36 15 15 (8100)
I1025 23:42:56.345259 16968 net.cpp:165] Memory required for data: 21325656
I1025 23:42:56.345263 16968 layer_factory.hpp:77] Creating layer rpn_cls_score_reshape
I1025 23:42:56.345276 16968 net.cpp:106] Creating Layer rpn_cls_score_reshape
I1025 23:42:56.345289 16968 net.cpp:454] rpn_cls_score_reshape <- rpn_cls_score
I1025 23:42:56.345294 16968 net.cpp:411] rpn_cls_score_reshape -> rpn_cls_score_reshape
I1025 23:42:56.345326 16968 net.cpp:150] Setting up rpn_cls_score_reshape
I1025 23:42:56.345330 16968 net.cpp:157] Top shape: 1 2 135 15 (4050)
I1025 23:42:56.345332 16968 net.cpp:165] Memory required for data: 21341856
I1025 23:42:56.345333 16968 layer_factory.hpp:77] Creating layer rpn_cls_prob
I1025 23:42:56.345347 16968 net.cpp:106] Creating Layer rpn_cls_prob
I1025 23:42:56.345348 16968 net.cpp:454] rpn_cls_prob <- rpn_cls_score_reshape
I1025 23:42:56.345352 16968 net.cpp:411] rpn_cls_prob -> rpn_cls_prob
I1025 23:42:56.345518 16968 net.cpp:150] Setting up rpn_cls_prob
I1025 23:42:56.345525 16968 net.cpp:157] Top shape: 1 2 135 15 (4050)
I1025 23:42:56.345526 16968 net.cpp:165] Memory required for data: 21358056
I1025 23:42:56.345528 16968 layer_factory.hpp:77] Creating layer rpn_cls_prob_reshape
I1025 23:42:56.345532 16968 net.cpp:106] Creating Layer rpn_cls_prob_reshape
I1025 23:42:56.345535 16968 net.cpp:454] rpn_cls_prob_reshape <- rpn_cls_prob
I1025 23:42:56.345553 16968 net.cpp:411] rpn_cls_prob_reshape -> rpn_cls_prob_reshape
I1025 23:42:56.345569 16968 net.cpp:150] Setting up rpn_cls_prob_reshape
I1025 23:42:56.345573 16968 net.cpp:157] Top shape: 1 18 15 15 (4050)
I1025 23:42:56.345576 16968 net.cpp:165] Memory required for data: 21374256
I1025 23:42:56.345577 16968 layer_factory.hpp:77] Creating layer proposal
I1025 23:42:56.347753 16968 net.cpp:106] Creating Layer proposal
I1025 23:42:56.347764 16968 net.cpp:454] proposal <- rpn_cls_prob_reshape
I1025 23:42:56.347777 16968 net.cpp:454] proposal <- rpn_bbox_pred
I1025 23:42:56.347779 16968 net.cpp:454] proposal <- im_info
I1025 23:42:56.347784 16968 net.cpp:411] proposal -> rois
I1025 23:42:56.347787 16968 net.cpp:411] proposal -> scores
I1025 23:42:56.348553 16968 net.cpp:150] Setting up proposal
I1025 23:42:56.348562 16968 net.cpp:157] Top shape: 1 5 (5)
I1025 23:42:56.348575 16968 net.cpp:157] Top shape: 1 1 1 1 (1)
I1025 23:42:56.348577 16968 net.cpp:165] Memory required for data: 21374280
I1025 23:42:56.348579 16968 net.cpp:228] proposal does not need backward computation.
I1025 23:42:56.348582 16968 net.cpp:228] rpn_cls_prob_reshape does not need backward computation.
I1025 23:42:56.348584 16968 net.cpp:228] rpn_cls_prob does not need backward computation.
I1025 23:42:56.348587 16968 net.cpp:228] rpn_cls_score_reshape does not need backward computation.
…
average_loss: 100
I1025 23:43:32.098448 16980 solver.cpp:81] Creating training net from train_net file: models/pascal_voc/ZF/faster_rcnn_alt_opt/stage1_fast_rcnn_train.pt
I1025 23:43:32.105723 16980 net.cpp:49] Initializing net from parameters: 
name: "ZF"
state {
  phase: TRAIN
}
layer {
  name: "data"
  type: "Python"
  top: "data"
  top: "rois"
  top: "labels"
  top: "bbox_targets"
  top: "bbox_inside_weights"
  top: "bbox_outside_weights"
  python_param {
    module: "roi_data_layer.layer"
    layer: "RoIDataLayer"
    param_str: "\'num_classes\': 2"
  }
}
layer {
  name: "conv1"
  type: "Convolution"
  bottom: "data"
  top: "conv1"
  param {
    lr_mult: 1
  }
  param {
    lr_mult: 2
  }
  convolution_param {
    num_output: 96
    pad: 3
    kernel_size: 7
    stride: 2
  }
}
layer {
  name: "relu1"
  type: "ReLU"
  bottom: "conv1"
  top: "conv1"
}
layer {
  name: "norm1"
  type: "LRN"
  bottom: "conv1"
  top: "norm1"
  lrn_param {
    local_size: 3
    alpha: 5e-05
    beta: 0.75
    norm_region: WITHIN_CHANNEL
    engine: CAFFE
  }
}
layer {
  name: "pool1"
  type: "Pooling"
  bottom: "norm1"
  top: "pool1"
  pooling_param {
    pool: MAX
    kernel_size: 3
    stride: 2
    pad: 1
  }
}
layer {
  name: "conv2"
  type: "Convolution"
  bottom: "pool1"
  top: "conv2"
  param {
    lr_mult: 1
  }
  param {
    lr_mult: 2
  }
  convolution_param {
    num_output: 256
    pad: 2
    kernel_size: 5
    stride: 2
  }
}
layer {
  name: "relu2"
  type: "ReLU"
  bottom: "conv2"
  top: "conv2"
}
layer {
  name: "norm2"
  type: "LRN"
  bottom: "conv2"
  top: "norm2"
  lrn_param {
    local_size: 3
    alpha: 5e-05
    beta: 0.75
    norm_region: WITHIN_CHANNEL
    engine: CAFFE
  }
}
layer {
  name: "pool2"
  type: "Pooling"
  bottom: "norm2"
  top: "pool2"
  pooling_param {
    pool: MAX
    kernel_size: 3
    stride: 2
    pad: 1
  }
}
layer {
  name: "conv3"
  type: "Convolution"
  bottom: "pool2"
  top: "conv3"
  param {
    lr_mult: 1
  }
  param {
    lr_mult: 2
  }
  convolution_param {
    num_output: 384
    pad: 1
    kernel_size: 3
    stride: 1
  }
}
layer {
  name: "relu3"
  type: "ReLU"
  bottom: "conv3"
  top: "conv3"
}
layer {
  name: "conv4"
  type: "Convolution"
  bottom: "conv3"
  top: "conv4"
  param {
    lr_mult: 1
  }
  param {
    lr_mult: 2
  }
  convolution_param {
    num_output: 384
    pad: 1
    kernel_size: 3
    stride: 1
  }
}
layer {
  name: "relu4"
  type: "ReLU"
  bottom: "conv4"
  top: "conv4"
}
layer {
  name: "conv5"
  type: "Convolution"
  bottom: "conv4"
  top: "conv5"
  param {
    lr_mult: 1
  }
  param {
    lr_mult: 2
  }
  convolution_param {
    num_output: 256
    pad: 1
    kernel_size: 3
    stride: 1
  }
}
layer {
  name: "relu5"
  type: "ReLU"
  bottom: "conv5"
  top: "conv5"
}
layer {
  name: "roi_pool_conv5"
  type: "ROIPooling"
  bottom: "conv5"
  bottom: "rois"
  top: "roi_pool_conv5"
  roi_pooling_param {
    pooled_h: 6
    pooled_w: 6
    spatial_scale: 0.0625
  }
}
layer {
  name: "fc6"
  type: "InnerProduct"
  bottom: "roi_pool_conv5"
  top: "fc6"
  param {
    lr_mult: 1
  }
  param {
    lr_mult: 2
  }
  inner_product_param {
    num_output: 4096
  }
}
layer {
  name: "relu6"
  type: "ReLU"
  bottom: "fc6"
  top: "fc6"
}
layer {
  name: "drop6"
  type: "Dropout"
  bottom: "fc6"
  top: "fc6"
  dropout_param {
    dropout_ratio: 0.5
    scale_train: false
  }
}
layer {
  name: "fc7"
  type: "InnerProduct"
  bottom: "fc6"
  top: "fc7"
  param {
    lr_mult: 1
  }
  param {
    lr_mult: 2
  }
  inner_product_param {
    num_output: 4096
  }
}
layer {
  name: "relu7"
  type: "ReLU"
  bottom: "fc7"
  top: "fc7"
}
layer {
  name: "drop7"
  type: "Dropout"
  bottom: "fc7"
  top: "fc7"
  dropout_param {
    dropout_ratio: 0.5
    scale_train: false
  }
}
layer {
  name: "cls_score"
  type: "InnerProduct"
  bottom: "fc7"
  top: "cls_score"
  param {
    lr_mult: 1
  }
  param {
    lr_mult: 2
  }
  inner_product_param {
    num_output: 2
    weight_filler {
      type: "gaussian"
      std: 0.01
    }
    bias_filler {
      type: "constant"
      value: 0
    }
  }
}
layer {
  name: "bbox_pred"
  type: "InnerProduct"
  bottom: "fc7"
  top: "bbox_pred"
  param {
    lr_mult: 1
  }
  param {
    lr_mult: 2
  }
  inner_product_param {
    num_output: 8
    weight_filler {
      type: "gaussian"
      std: 0.001
    }
    bias_filler {
      type: "constant"
      value: 0
    }
  }
}
layer {
  name: "loss_cls"
  type: "SoftmaxWithLoss"
  bottom: "cls_score"
  bottom: "labels"
  top: "cls_loss"
  loss_weight: 1
  propagate_down: true
  propagate_down: false
  loss_param {
    ignore_label: -1
    normalize: true
  }
}
layer {
  name: "loss_bbox"
  type: "SmoothL1Loss"
  bottom: "bbox_pred"
  bottom: "bbox_targets"
  bottom: "bbox_inside_weights"
  bottom: "bbox_outside_weights"
  top: "bbox_loss"
  loss_weight: 1
}
layer {
  name: "rpn_conv1"
  type: "Convolution"
  bottom: "conv5"
  top: "rpn_conv1"
  param {
    lr_mult: 0
    decay_mult: 0
  }
  param {
    lr_mult: 0
    decay_mult: 0
  }
  convolution_param {
    num_output: 256
    pad: 1
    kernel_size: 3
    stride: 1
    weight_filler {
      type: "gaussian"
      std: 0.01
    }
    bias_filler {
      type: "constant"
      value: 0
    }
  }
}
layer {
  name: "rpn_relu1"
  type: "ReLU"
  bottom: "rpn_conv1"
  top: "rpn_conv1"
}
layer {
  name: "rpn_cls_score"
  type: "Convolution"
  bottom: "rpn_conv1"
  top: "rpn_cls_score"
  param {
    lr_mult: 0
    decay_mult: 0
  }
  param {
    lr_mult: 0
    decay_mult: 0
  }
  convolution_param {
    num_output: 18
    pad: 0
    kernel_size: 1
    stride: 1
    weight_filler {
      type: "gaussian"
      std: 0.01
    }
    bias_filler {
      type: "constant"
      value: 0
    }
  }
}
layer {
  name: "rpn_bbox_pred"
  type: "Convolution"
  bottom: "rpn_conv1"
  top: "rpn_bbox_pred"
  param {
    lr_mult: 0
    decay_mult: 0
  }
  param {
    lr_mult: 0
    decay_mult: 0
  }
  convolution_param {
    num_output: 36
    pad: 0
    kernel_size: 1
    stride: 1
    weight_filler {
      type: "gaussian"
      std: 0.01
    }
    bias_filler {
      type: "constant"
      value: 0
    }
  }
}
layer {
  name: "silence_rpn_cls_score"
  type: "Silence"
  bottom: "rpn_cls_score"
}
layer {
  name: "silence_rpn_bbox_pred"
  type: "Silence"
  bottom: "rpn_bbox_pred"
}
I1025 23:43:32.105851 16980 layer_factory.hpp:77] Creating layer data
I1025 23:43:32.106240 16980 net.cpp:106] Creating Layer data
I1025 23:43:32.106248 16980 net.cpp:411] data -> data
I1025 23:43:32.106256 16980 net.cpp:411] data -> rois
I1025 23:43:32.106259 16980 net.cpp:411] data -> labels
I1025 23:43:32.106263 16980 net.cpp:411] data -> bbox_targets
I1025 23:43:32.106266 16980 net.cpp:411] data -> bbox_inside_weights
I1025 23:43:32.106271 16980 net.cpp:411] data -> bbox_outside_weights
I1025 23:43:32.112805 16980 net.cpp:150] Setting up data
I1025 23:43:32.112828 16980 net.cpp:157] Top shape: 2 3 600 1000 (3600000)
I1025 23:43:32.112830 16980 net.cpp:157] Top shape: 1 5 (5)
I1025 23:43:32.112833 16980 net.cpp:157] Top shape: 1 (1)
I1025 23:43:32.112833 16980 net.cpp:157] Top shape: 1 8 (8)
I1025 23:43:32.112835 16980 net.cpp:157] Top shape: 1 8 (8)
I1025 23:43:32.112838 16980 net.cpp:157] Top shape: 1 8 (8)
I1025 23:43:32.112840 16980 net.cpp:165] Memory required for data: 14400120
I1025 23:43:32.112856 16980 layer_factory.hpp:77] Creating layer conv1
I1025 23:43:32.112874 16980 net.cpp:106] Creating Layer conv1
I1025 23:43:32.112889 16980 net.cpp:454] conv1 <- data
I1025 23:43:32.112892 16980 net.cpp:411] conv1 -> conv1
I1025 23:43:32.217070 16980 net.cpp:150] Setting up conv1
I1025 23:43:32.217092 16980 net.cpp:157] Top shape: 2 96 300 500 (28800000)
I1025 23:43:32.217094 16980 net.cpp:165] Memory required for data: 129600120
I1025 23:43:32.217106 16980 layer_factory.hpp:77] Creating layer relu1
I1025 23:43:32.217118 16980 net.cpp:106] Creating Layer relu1
I1025 23:43:32.217133 16980 net.cpp:454] relu1 <- conv1
I1025 23:43:32.217139 16980 net.cpp:397] relu1 -> conv1 (in-place)
I1025 23:43:32.217344 16980 net.cpp:150] Setting up relu1
I1025 23:43:32.217351 16980 net.cpp:157] Top shape: 2 96 300 500 (28800000)
I1025 23:43:32.217365 16980 net.cpp:165] Memory required for data: 244800120
I1025 23:43:32.217367 16980 layer_factory.hpp:77] Creating layer norm1
I1025 23:43:32.217387 16980 net.cpp:106] Creating Layer norm1
I1025 23:43:32.217391 16980 net.cpp:454] norm1 <- conv1
I1025 23:43:32.217394 16980 net.cpp:411] norm1 -> norm1
I1025 23:43:32.217486 16980 net.cpp:150] Setting up norm1
I1025 23:43:32.217491 16980 net.cpp:157] Top shape: 2 96 300 500 (28800000)
I1025 23:43:32.217492 16980 net.cpp:165] Memory required for data: 360000120
I1025 23:43:32.217504 16980 layer_factory.hpp:77] Creating layer pool1
I1025 23:43:32.217509 16980 net.cpp:106] Creating Layer pool1
I1025 23:43:32.217511 16980 net.cpp:454] pool1 <- norm1
I1025 23:43:32.217514 16980 net.cpp:411] pool1 -> pool1
I1025 23:43:32.217538 16980 net.cpp:150] Setting up pool1
I1025 23:43:32.217543 16980 net.cpp:157] Top shape: 2 96 151 251 (7276992)
I1025 23:43:32.217546 16980 net.cpp:165] Memory required for data: 389108088
I1025 23:43:32.217548 16980 layer_factory.hpp:77] Creating layer conv2
I1025 23:43:32.217558 16980 net.cpp:106] Creating Layer conv2
I1025 23:43:32.217561 16980 net.cpp:454] conv2 <- pool1
I1025 23:43:32.217566 16980 net.cpp:411] conv2 -> conv2
I1025 23:43:32.218992 16980 net.cpp:150] Setting up conv2
I1025 23:43:32.219000 16980 net.cpp:157] Top shape: 2 256 76 126 (4902912)
I1025 23:43:32.219002 16980 net.cpp:165] Memory required for data: 408719736
I1025 23:43:32.219008 16980 layer_factory.hpp:77] Creating layer relu2
I1025 23:43:32.219012 16980 net.cpp:106] Creating Layer relu2
I1025 23:43:32.219013 16980 net.cpp:454] relu2 <- conv2
I1025 23:43:32.219017 16980 net.cpp:397] relu2 -> conv2 (in-place)
I1025 23:43:32.219252 16980 net.cpp:150] Setting up relu2
I1025 23:43:32.219260 16980 net.cpp:157] Top shape: 2 256 76 126 (4902912)
I1025 23:43:32.219262 16980 net.cpp:165] Memory required for data: 428331384
I1025 23:43:32.219264 16980 layer_factory.hpp:77] Creating layer norm2
I1025 23:43:32.219270 16980 net.cpp:106] Creating Layer norm2
I1025 23:43:32.219274 16980 net.cpp:454] norm2 <- conv2
I1025 23:43:32.219279 16980 net.cpp:411] norm2 -> norm2
I1025 23:43:32.219355 16980 net.cpp:150] Setting up norm2
I1025 23:43:32.219362 16980 net.cpp:157] Top shape: 2 256 76 126 (4902912)
I1025 23:43:32.219372 16980 net.cpp:165] Memory required for data: 447943032
I1025 23:43:32.219374 16980 layer_factory.hpp:77] Creating layer pool2
I1025 23:43:32.219379 16980 net.cpp:106] Creating Layer pool2
I1025 23:43:32.219383 16980 net.cpp:454] pool2 <- norm2
I1025 23:43:32.219388 16980 net.cpp:411] pool2 -> pool2
I1025 23:43:32.219421 16980 net.cpp:150] Setting up pool2
I1025 23:43:32.219425 16980 net.cpp:157] Top shape: 2 256 39 64 (1277952)
I1025 23:43:32.219427 16980 net.cpp:165] Memory required for data: 453054840
I1025 23:43:32.219444 16980 layer_factory.hpp:77] Creating layer conv3
I1025 23:43:32.219454 16980 net.cpp:106] Creating Layer conv3
I1025 23:43:32.219456 16980 net.cpp:454] conv3 <- pool2
I1025 23:43:32.219460 16980 net.cpp:411] conv3 -> conv3
I1025 23:43:32.221727 16980 net.cpp:150] Setting up conv3
I1025 23:43:32.221746 16980 net.cpp:157] Top shape: 2 384 39 64 (1916928)
I1025 23:43:32.221750 16980 net.cpp:165] Memory required for data: 460722552
I1025 23:43:32.221771 16980 layer_factory.hpp:77] Creating layer relu3
I1025 23:43:32.221791 16980 net.cpp:106] Creating Layer relu3
I1025 23:43:32.221796 16980 net.cpp:454] relu3 <- conv3
I1025 23:43:32.221798 16980 net.cpp:397] relu3 -> conv3 (in-place)
I1025 23:43:32.221937 16980 net.cpp:150] Setting up relu3
I1025 23:43:32.221942 16980 net.cpp:157] Top shape: 2 384 39 64 (1916928)
I1025 23:43:32.221945 16980 net.cpp:165] Memory required for data: 468390264
I1025 23:43:32.221956 16980 layer_factory.hpp:77] Creating layer conv4
I1025 23:43:32.221963 16980 net.cpp:106] Creating Layer conv4
I1025 23:43:32.221966 16980 net.cpp:454] conv4 <- conv3
I1025 23:43:32.221971 16980 net.cpp:411] conv4 -> conv4
I1025 23:43:32.224303 16980 net.cpp:150] Setting up conv4
I1025 23:43:32.224318 16980 net.cpp:157] Top shape: 2 384 39 64 (1916928)
I1025 23:43:32.224319 16980 net.cpp:165] Memory required for data: 476057976
I1025 23:43:32.224324 16980 layer_factory.hpp:77] Creating layer relu4
I1025 23:43:32.224329 16980 net.cpp:106] Creating Layer relu4
I1025 23:43:32.224333 16980 net.cpp:454] relu4 <- conv4
I1025 23:43:32.224336 16980 net.cpp:397] relu4 -> conv4 (in-place)
I1025 23:43:32.224586 16980 net.cpp:150] Setting up relu4
I1025 23:43:32.224594 16980 net.cpp:157] Top shape: 2 384 39 64 (1916928)
I1025 23:43:32.224606 16980 net.cpp:165] Memory required for data: 483725688
I1025 23:43:32.224607 16980 layer_factory.hpp:77] Creating layer conv5
I1025 23:43:32.224623 16980 net.cpp:106] Creating Layer conv5
I1025 23:43:32.224625 16980 net.cpp:454] conv5 <- conv4
I1025 23:43:32.224632 16980 net.cpp:411] conv5 -> conv5
I1025 23:43:32.226330 16980 net.cpp:150] Setting up conv5
I1025 23:43:32.226341 16980 net.cpp:157] Top shape: 2 256 39 64 (1277952)
I1025 23:43:32.226341 16980 net.cpp:165] Memory required for data: 488837496
I1025 23:43:32.226349 16980 layer_factory.hpp:77] Creating layer relu5
I1025 23:43:32.226371 16980 net.cpp:106] Creating Layer relu5
I1025 23:43:32.226385 16980 net.cpp:454] relu5 <- conv5
I1025 23:43:32.226390 16980 net.cpp:397] relu5 -> conv5 (in-place)
I1025 23:43:32.226635 16980 net.cpp:150] Setting up relu5
I1025 23:43:32.226642 16980 net.cpp:157] Top shape: 2 256 39 64 (1277952)
I1025 23:43:32.226644 16980 net.cpp:165] Memory required for data: 493949304
I1025 23:43:32.226646 16980 layer_factory.hpp:77] Creating layer conv5_relu5_0_split
I1025 23:43:32.226650 16980 net.cpp:106] Creating Layer conv5_relu5_0_split
I1025 23:43:32.226652 16980 net.cpp:454] conv5_relu5_0_split <- conv5
I1025 23:43:32.226656 16980 net.cpp:411] conv5_relu5_0_split -> conv5_relu5_0_split_0
I1025 23:43:32.226671 16980 net.cpp:411] conv5_relu5_0_split -> conv5_relu5_0_split_1
I1025 23:43:32.226723 16980 net.cpp:150] Setting up conv5_relu5_0_split
I1025 23:43:32.226727 16980 net.cpp:157] Top shape: 2 256 39 64 (1277952)
I1025 23:43:32.226739 16980 net.cpp:157] Top shape: 2 256 39 64 (1277952)
I1025 23:43:32.226740 16980 net.cpp:165] Memory required for data: 504172920
I1025 23:43:32.226742 16980 layer_factory.hpp:77] Creating layer roi_pool_conv5
I1025 23:43:32.226763 16980 net.cpp:106] Creating Layer roi_pool_conv5
I1025 23:43:32.226765 16980 net.cpp:454] roi_pool_conv5 <- conv5_relu5_0_split_0
I1025 23:43:32.226783 16980 net.cpp:454] roi_pool_conv5 <- rois
I1025 23:43:32.226785 16980 net.cpp:411] roi_pool_conv5 -> roi_pool_conv5
I1025 23:43:32.226789 16980 roi_pooling_layer.cpp:30] Spatial scale: 0.0625
I1025 23:43:32.226843 16980 net.cpp:150] Setting up roi_pool_conv5
I1025 23:43:32.226846 16980 net.cpp:157] Top shape: 1 256 6 6 (9216)
I1025 23:43:32.226848 16980 net.cpp:165] Memory required for data: 504209784
I1025 23:43:32.226850 16980 layer_factory.hpp:77] Creating layer fc6
I1025 23:43:32.226855 16980 net.cpp:106] Creating Layer fc6
I1025 23:43:32.226858 16980 net.cpp:454] fc6 <- roi_pool_conv5
I1025 23:43:32.226861 16980 net.cpp:411] fc6 -> fc6
I1025 23:43:32.272431 16980 net.cpp:150] Setting up fc6
I1025 23:43:32.272455 16980 net.cpp:157] Top shape: 1 4096 (4096)
I1025 23:43:32.272457 16980 net.cpp:165] Memory required for data: 504226168
I1025 23:43:32.272465 16980 layer_factory.hpp:77] Creating layer relu6
I1025 23:43:32.272475 16980 net.cpp:106] Creating Layer relu6
I1025 23:43:32.272477 16980 net.cpp:454] relu6 <- fc6
I1025 23:43:32.272492 16980 net.cpp:397] relu6 -> fc6 (in-place)
I1025 23:43:32.272862 16980 net.cpp:150] Setting up relu6
I1025 23:43:32.272869 16980 net.cpp:157] Top shape: 1 4096 (4096)
I1025 23:43:32.272871 16980 net.cpp:165] Memory required for data: 504242552
I1025 23:43:32.272873 16980 layer_factory.hpp:77] Creating layer drop6
I1025 23:43:32.272878 16980 net.cpp:106] Creating Layer drop6
I1025 23:43:32.272881 16980 net.cpp:454] drop6 <- fc6
I1025 23:43:32.272883 16980 net.cpp:397] drop6 -> fc6 (in-place)
I1025 23:43:32.272925 16980 net.cpp:150] Setting up drop6
I1025 23:43:32.272929 16980 net.cpp:157] Top shape: 1 4096 (4096)
I1025 23:43:32.272930 16980 net.cpp:165] Memory required for data: 504258936
I1025 23:43:32.272943 16980 layer_factory.hpp:77] Creating layer fc7
I1025 23:43:32.272948 16980 net.cpp:106] Creating Layer fc7
I1025 23:43:32.272951 16980 net.cpp:454] fc7 <- fc6
I1025 23:43:32.272956 16980 net.cpp:411] fc7 -> fc7
I1025 23:43:32.293972 16980 net.cpp:150] Setting up fc7
I1025 23:43:32.294004 16980 net.cpp:157] Top shape: 1 4096 (4096)
I1025 23:43:32.294006 16980 net.cpp:165] Memory required for data: 504275320
I1025 23:43:32.294014 16980 layer_factory.hpp:77] Creating layer relu7
I1025 23:43:32.294033 16980 net.cpp:106] Creating Layer relu7
I1025 23:43:32.294036 16980 net.cpp:454] relu7 <- fc7
I1025 23:43:32.294044 16980 net.cpp:397] relu7 -> fc7 (in-place)
I1025 23:43:32.294236 16980 net.cpp:150] Setting up relu7
I1025 23:43:32.294242 16980 net.cpp:157] Top shape: 1 4096 (4096)
I1025 23:43:32.294245 16980 net.cpp:165] Memory required for data: 504291704
I1025 23:43:32.294256 16980 layer_factory.hpp:77] Creating layer drop7
I1025 23:43:32.294261 16980 net.cpp:106] Creating Layer drop7
I1025 23:43:32.294275 16980 net.cpp:454] drop7 <- fc7
I1025 23:43:32.294281 16980 net.cpp:397] drop7 -> fc7 (in-place)
I1025 23:43:32.294304 16980 net.cpp:150] Setting up drop7
I1025 23:43:32.294308 16980 net.cpp:157] Top shape: 1 4096 (4096)
I1025 23:43:32.294312 16980 net.cpp:165] Memory required for data: 504308088
I1025 23:43:32.294314 16980 layer_factory.hpp:77] Creating layer fc7_drop7_0_split
I1025 23:43:32.294320 16980 net.cpp:106] Creating Layer fc7_drop7_0_split
I1025 23:43:32.294323 16980 net.cpp:454] fc7_drop7_0_split <- fc7
I1025 23:43:32.294329 16980 net.cpp:411] fc7_drop7_0_split -> fc7_drop7_0_split_0
I1025 23:43:32.294335 16980 net.cpp:411] fc7_drop7_0_split -> fc7_drop7_0_split_1
I1025 23:43:32.294364 16980 net.cpp:150] Setting up fc7_drop7_0_split
I1025 23:43:32.294368 16980 net.cpp:157] Top shape: 1 4096 (4096)
I1025 23:43:32.294373 16980 net.cpp:157] Top shape: 1 4096 (4096)
I1025 23:43:32.294376 16980 net.cpp:165] Memory required for data: 504340856
I1025 23:43:32.294378 16980 layer_factory.hpp:77] Creating layer cls_score
I1025 23:43:32.294385 16980 net.cpp:106] Creating Layer cls_score
I1025 23:43:32.294389 16980 net.cpp:454] cls_score <- fc7_drop7_0_split_0
I1025 23:43:32.294394 16980 net.cpp:411] cls_score -> cls_score
I1025 23:43:32.294555 16980 net.cpp:150] Setting up cls_score
I1025 23:43:32.294560 16980 net.cpp:157] Top shape: 1 2 (2)
I1025 23:43:32.294564 16980 net.cpp:165] Memory required for data: 504340864
I1025 23:43:32.294569 16980 layer_factory.hpp:77] Creating layer bbox_pred
I1025 23:43:32.294574 16980 net.cpp:106] Creating Layer bbox_pred
I1025 23:43:32.294577 16980 net.cpp:454] bbox_pred <- fc7_drop7_0_split_1
I1025 23:43:32.294584 16980 net.cpp:411] bbox_pred -> bbox_pred
I1025 23:43:32.295260 16980 net.cpp:150] Setting up bbox_pred
I1025 23:43:32.295269 16980 net.cpp:157] Top shape: 1 8 (8)
I1025 23:43:32.295272 16980 net.cpp:165] Memory required for data: 504340896
I1025 23:43:32.295281 16980 layer_factory.hpp:77] Creating layer loss_cls
I1025 23:43:32.295289 16980 net.cpp:106] Creating Layer loss_cls
I1025 23:43:32.295291 16980 net.cpp:454] loss_cls <- cls_score
I1025 23:43:32.295295 16980 net.cpp:454] loss_cls <- labels
I1025 23:43:32.295311 16980 net.cpp:411] loss_cls -> cls_loss
…
I1025 23:43:32.295745 16980 net.cpp:150] Setting up loss_bbox
I1025 23:43:32.295749 16980 net.cpp:157] Top shape: (1)
I1025 23:43:32.295753 16980 net.cpp:160]     with loss weight 1
I1025 23:43:32.295756 16980 net.cpp:165] Memory required for data: 504340904
I1025 23:43:32.295759 16980 layer_factory.hpp:77] Creating layer rpn_conv1
I1025 23:43:32.295778 16980 net.cpp:106] Creating Layer rpn_conv1
I1025 23:43:32.295781 16980 net.cpp:454] rpn_conv1 <- conv5_relu5_0_split_1
I1025 23:43:32.295785 16980 net.cpp:411] rpn_conv1 -> rpn_conv1
I1025 23:43:32.301293 16980 net.cpp:150] Setting up rpn_conv1
I1025 23:43:32.301302 16980 net.cpp:157] Top shape: 2 256 39 64 (1277952)
I1025 23:43:32.301306 16980 net.cpp:165] Memory required for data: 509452712
I1025 23:43:32.301319 16980 layer_factory.hpp:77] Creating layer rpn_relu1
I1025 23:43:32.301323 16980 net.cpp:106] Creating Layer rpn_relu1
I1025 23:43:32.301326 16980 net.cpp:454] rpn_relu1 <- rpn_conv1
I1025 23:43:32.301329 16980 net.cpp:397] rpn_relu1 -> rpn_conv1 (in-place)
I1025 23:43:32.301563 16980 net.cpp:150] Setting up rpn_relu1
I1025 23:43:32.301569 16980 net.cpp:157] Top shape: 2 256 39 64 (1277952)
I1025 23:43:32.301573 16980 net.cpp:165] Memory required for data: 514564520
I1025 23:43:32.301584 16980 layer_factory.hpp:77] Creating layer rpn_conv1_rpn_relu1_0_split
I1025 23:43:32.301589 16980 net.cpp:106] Creating Layer rpn_conv1_rpn_relu1_0_split
I1025 23:43:32.301592 16980 net.cpp:454] rpn_conv1_rpn_relu1_0_split <- rpn_conv1
I1025 23:43:32.301599 16980 net.cpp:411] rpn_conv1_rpn_relu1_0_split -> rpn_conv1_rpn_relu1_0_split_0
I1025 23:43:32.301604 16980 net.cpp:411] rpn_conv1_rpn_relu1_0_split -> rpn_conv1_rpn_relu1_0_split_1
I1025 23:43:32.301633 16980 net.cpp:150] Setting up rpn_conv1_rpn_relu1_0_split
I1025 23:43:32.301637 16980 net.cpp:157] Top shape: 2 256 39 64 (1277952)
I1025 23:43:32.301640 16980 net.cpp:157] Top shape: 2 256 39 64 (1277952)
I1025 23:43:32.301642 16980 net.cpp:165] Memory required for data: 524788136
I1025 23:43:32.301643 16980 layer_factory.hpp:77] Creating layer rpn_cls_score
I1025 23:43:32.301651 16980 net.cpp:106] Creating Layer rpn_cls_score
I1025 23:43:32.301653 16980 net.cpp:454] rpn_cls_score <- rpn_conv1_rpn_relu1_0_split_0
I1025 23:43:32.301657 16980 net.cpp:411] rpn_cls_score -> rpn_cls_score
I1025 23:43:32.302374 16980 net.cpp:150] Setting up rpn_cls_score
I1025 23:43:32.302382 16980 net.cpp:157] Top shape: 2 18 39 64 (89856)
I1025 23:43:32.302384 16980 net.cpp:165] Memory required for data: 525147560
I1025 23:43:32.302388 16980 layer_factory.hpp:77] Creating layer rpn_bbox_pred
I1025 23:43:32.302399 16980 net.cpp:106] Creating Layer rpn_bbox_pred
I1025 23:43:32.302402 16980 net.cpp:454] rpn_bbox_pred <- rpn_conv1_rpn_relu1_0_split_1
I1025 23:43:32.302407 16980 net.cpp:411] rpn_bbox_pred -> rpn_bbox_pred
I1025 23:43:32.303158 16980 net.cpp:150] Setting up rpn_bbox_pred
I1025 23:43:32.303167 16980 net.cpp:157] Top shape: 2 36 39 64 (179712)
I1025 23:43:32.303169 16980 net.cpp:165] Memory required for data: 525866408
I1025 23:43:32.303174 16980 layer_factory.hpp:77] Creating layer silence_rpn_cls_score
I1025 23:43:32.303179 16980 net.cpp:106] Creating Layer silence_rpn_cls_score
I1025 23:43:32.303182 16980 net.cpp:454] silence_rpn_cls_score <- rpn_cls_score
I1025 23:43:32.303187 16980 net.cpp:150] Setting up silence_rpn_cls_score
…
